android-app/app/src/main/assets/kiss_model.tflite (tflite, 190600 bytes, 7 tensors)

arith.constant f4 [16]
0	0xbb29b291	-0.0025893787
1	0x3b67ca56	0.0035368404
2	0xbc4d263d	-0.012521324
3	0xbc5e892b	-0.013582508
4	0xbbe42647	-0.006962571
5	0x3a54abe6	0.0008112773
6	0xbc3b6216	-0.01143696
7	0x3a81d725	0.0009906037
8	0x3b2430d9	0.002505353
9	0xbc407c35	-0.011748363
10	0xbc2e8cb8	-0.010653667
11	0xbc304665	-0.010758971
12	0xbc1aee99	-0.0094563
13	0xbc1a4b1c	-0.0094173215
14	0xbc393a4b	-0.011305402
15	0xb974247e	-0.00023283248

arith.constant1 f4 [16, 3, 3, 1]
0	0xbe3db333	-0.1852539
1	0x3d2cab37	0.04215547
2	0x3e3f8570	0.18703246
3	0xbd523b85	-0.051326293
4	0xbdcd481a	-0.10023518
5	0x3b5f53b3	0.0034076988
6	0x3d8498a2	0.06474425
7	0x3df6485a	0.12025519
8	0xbdbeabd0	-0.093101144
9	0x3dac3fde	0.08410619
10	0x3e1b93e5	0.15193136
11	0x3e35ad18	0.17741811
12	0xbd9dc98a	-0.07704456
13	0x3e02580c	0.127289
14	0x3e0506a8	0.1299082
15	0xbe4d5bd0	-0.20054555
16	0x3cdb937c	0.026803724
17	0xbd439def	-0.04775804
18	0xbd56568a	-0.052328624
19	0x3c6a5580	0.014302611
20	0xbdfb5d70	-0.12273681
21	0xbe1b4a7e	-0.15165135
22	0xbde0b36c	-0.10971722
23	0x3d6b3c6c	0.05743067
24	0x3e1ed05e	0.15509173
25	0xbdb9dc2d	-0.09075198
26	0x3dec11cb	0.11526831
27	0xbdeebd5e	-0.11657213
28	0xbd6e0180	-0.0581069
29	0x3e182a9d	0.14860006
30	0x3d9ae450	0.075630784
31	0xbe2c30b7	-0.16815458
32	0x3ce519ed	0.027966464
33	0xbdb7e558	-0.08979291
34	0x3e364d7e	0.17802998
35	0x3d962067	0.07330399
36	0xbe118a1a	-0.14212838
37	0x3dec86a0	0.11549115
38	0x3e39cfa8	0.18145621
39	0x3e226016	0.15856966
40	0x3b8a2af2	0.0042165453
41	0xbe361741	-0.17782308
42	0x3d06d94d	0.032922078
43	0xbe05e170	-0.13074279
44	0x3e1da2c6	0.15394124
45	0xbb498f16	-0.0030755452
46	0xbb8868fe	-0.0041629067
47	0xbe4517ba	-0.19247332
48	0x3e3cad49	0.18425478
49	0xbe24e610	-0.16103387
50	0x3db0c21e	0.08630775
51	0xbe324eee	-0.17412922
52	0x3d2301c0	0.03979659
53	0x3e0167a8	0.12637198
54	0xbdc8484d	-0.09779415
55	0x3da1bf13	0.07897773
56	0x3d774889	0.06037191
57	0x3dfa62b3	0.12225857
58	0xbdc6cc00	-0.09706879
59	0xbc91e8d3	-0.017811215
60	0xbce9852e	-0.028505888
61	0xbdfec81b	-0.12440511
62	0x3dacaf5b	0.08431884
63	0xbd979752	-0.07401909
64	0xbdd1b40c	-0.10239419
65	0x3ca526c8	0.020160094
66	0xbdc4414a	-0.095827654
67	0x3dd6604a	0.104675844
68	0xbe494b7d	-0.19657703
69	0x3e0ffe53	0.1406186
70	0x3de7f0ed	0.1132525
71	0x3d9beaea	0.07613166
72	0xbe2928a7	-0.16519414
73	0x3dd9a619	0.10627384
74	0xbd077e57	-0.03307947
75	0x3dad29cb	0.08455237
76	0xbe462077	-0.19348322
77	0xbda0fab8	-0.07860321
78	0xbe2ae669	-0.16689457
79	0x3dbad1ea	0.09122069
80	0xbd0fba61	-0.035089854
81	0x3e0f39d5	0.13986905
82	0xbe1bb84b	-0.15207021
83	0xbce3ccda	-0.027807642
84	0x3e366732	0.17812803
85	0x3c38381a	0.011243844
86	0xbd4edb47	-0.050502088
87	0xbcbc3185	-0.022972832
88	0x3db5569a	0.088544086
89	0x3d7f337e	0.062304966
90	0x3c7458d9	0.014913761
91	0xbdba010b	-0.0908223
92	0x3d161d63	0.03664912
93	0x3da0d52e	0.07853161
94	0xbd9c71ba	-0.07638879
95	0x3d43bac0	0.04778552
96	0x3e086fce	0.133239
97	0xbe0dc28b	-0.13843744
98	0x3d2ceee8	0.042220026
99	0xbe30b196	-0.17255244
100	0xbde6f52f	-0.11277234
101	0xbe035617	-0.1282581
102	0x3dd0eaf0	0.10201061
103	0x3e09a982	0.13443568
104	0x3d6d47dc	0.05792986
105	0x3d7e08a0	0.062019944
106	0xbe20b517	-0.1569408
107	0x3d8c4aa3	0.06850173
108	0x3e09bedb	0.13451712
109	0x3e1710b7	0.1475247
110	0xb8a6e8d0	-7.9588615e-05
111	0x3d756ac1	0.05991626
112	0x3d7c5bef	0.061611112
113	0x3e28806f	0.16455244
114	0xba2bae04	-0.00065490627
115	0xbac0bac2	-0.0014704096
116	0xbcf86ed4	-0.030326284
117	0xbe3503f6	-0.17677292
118	0xbd99c480	-0.075081825
119	0x3ddb2f4c	0.107023805
120	0xbc824811	-0.015903505
121	0x3cedaa73	0.02901194
122	0xbdd6f3c1	-0.10495711
123	0x3bca0649	0.0061653
124	0xbd6487d7	-0.05579361
125	0x3ccb90fc	0.024849407
126	0xbd438694	-0.047735766
127	0xbe3ae656	-0.18251929
128	0xbc0c5906	-0.008566147
129	0xbe04149a	-0.12898484
130	0xbe15500f	-0.14581321
131	0xbce8d379	-0.02842115
132	0x3c5dad27	0.013530052
133	0xbb98db01	-0.004664779
134	0xbe122960	-0.14273596
135	0x3e0a6298	0.13514173
136	0xbd9a6173	-0.07538118
137	0xbd1c1458	-0.03810534
138	0x3e424db9	0.18974961
139	0xbcf43b2e	-0.029813375
140	0x3e04e9e1	0.12979843
141	0x3e2f2ad8	0.17106187
142	0xbd5bc576	-0.05365511
143	0xbd106ef9	-0.03526208

arith.constant4 f4 [64]
0	0x3b31517d	0.0027056627
1	0x3b208a9b	0.0024496678
2	0x3a8c2fee	0.0010695437
3	0x3bac77ba	0.005263296
4	0x39a78733	0.00031953453
5	0x00000000	0.0
6	0xbb6f1c9e	-0.0036485563
7	0xbb5f29b3	-0.0034051954
8	0xbb6a2516	-0.0035727671
9	0xbbd8f8dc	-0.006621463
10	0xbbb2cb90	-0.0054563954
11	0xbbd60e2c	-0.006532451
12	0x3a1ce40b	0.0005984909
13	0xbab3cef4	-0.0013718293
14	0xbbaf601a	-0.0053520324
15	0xbb5f3f48	-0.0034064818
16	0xbbddc637	-0.006768014
17	0xbbec2a6e	-0.0072072065
18	0x3a2f12c8	0.0006678519
19	0x00000000	0.0
20	0xbab3b231	-0.0013709721
21	0x3b54bfad	0.003246288
22	0x00000000	0.0
23	0xbb4c1c33	-0.0031144738
24	0x3a14c03e	0.0005674398
25	0xbbafcdb3	-0.0053650974
26	0xbb9828d3	-0.0046435385
27	0xbb8e7bc7	-0.0043482515
28	0x3aca5ebc	0.001543961
29	0xbbafd214	-0.0053656194
30	0x00000000	0.0
31	0x3b4feb28	0.0031725857
32	0xbb8923d7	-0.0041851806
33	0xbbdebf91	-0.006797739
34	0xbbafc89a	-0.0053644897
35	0xbbf4a775	-0.0074662515
36	0x39928c58	0.00027951854
37	0xbb8480ac	-0.004043659
38	0xbbafccb0	-0.005364977
39	0x3a548264	0.0008106588
40	0xbbafbf25	-0.0053633624
41	0x00000000	0.0
42	0xbbec1199	-0.0072042462
43	0xbbafcc79	-0.005364951
44	0x3b82c5ef	0.0039908807
45	0x39bd6fdc	0.0003613223
46	0xbbf08459	-0.007339996
47	0xbb71839b	-0.0036852125
48	0xbaf31c32	-0.0018547832
49	0x3a0b9348	0.0005324376
50	0xbb9ece8c	-0.0048463996
51	0x00000000	0.0
52	0x3997648a	0.00028875872
53	0xb9caa462	-0.00038650917
54	0xbb557c42	-0.0032575284
55	0xbbf3b46f	-0.007437281
56	0xbb8e7a6e	-0.004348091
57	0xbba79f4f	-0.0051154266
58	0xbb48958b	-0.0030606713
59	0xbb779d89	-0.0037783107
60	0x39d58957	0.00040728852
61	0x3b3e1a99	0.0029007553
62	0xbbd4b85a	-0.006491703
63	0xbbf10d8e	-0.007356352

arith.constant5 f4 [1, 64]
0	0xbe1b86c1	-0.15188123
1	0xbe6904d4	-0.22755748
2	0x3e222002	0.15832523
3	0xbe8b6ab4	-0.27229846
4	0x3e1b7331	0.15180661
5	0x3cec8910	0.02887395
6	0x3de48439	0.11158032
7	0xbd2ca94d	-0.042153645
8	0xbe6e58f0	-0.23276114
9	0xbd8d801b	-0.069092
10	0x3e5850ce	0.21124575
11	0xbc79a432	-0.015236901
12	0x3e720e9f	0.2363839
13	0x3e11cbd5	0.14237912
14	0xbdc4244a	-0.09577234
15	0xbe93e273	-0.28883705
16	0xbe57514e	-0.21027109
17	0xbe8694f1	-0.26285508
18	0x3e747a8a	0.2387487
19	0x3d3005e0	0.042974353
20	0xbd78cc1b	-0.060741525
21	0xbe8cb8a4	-0.2748462
22	0xbe9019bd	-0.28144637
23	0x3e06610d	0.1312296
24	0x3d0e669e	0.034765832
25	0xbe52839c	-0.20558017
26	0xbe2a6e5a	-0.16643658
27	0x3d388578	0.04504916
28	0xbe47f385	-0.19526489
29	0xbe801fc2	-0.2502423
30	0x3e89130a	0.26772338
31	0xbdb876cb	-0.09007033
32	0x3deea63f	0.11652803
33	0xbe86e111	-0.26343587
34	0x3e3b9e4c	0.18322104
35	0xbe92d758	-0.2867992
36	0xbe222f03	-0.15838246
37	0x3e522077	0.20520197
38	0xbe80a168	-0.25123143
39	0xbe81ba6e	-0.25337547
40	0x3e951b94	0.29122603
41	0x3e8f6b76	0.28011674
42	0xbe9416fa	-0.2892378
43	0xbe7431d3	-0.23847131
44	0x3e567932	0.2094467
45	0x3e6e3319	0.2326168
46	0xbe687d4c	-0.22704047
47	0xbdc41d54	-0.095759064
48	0x3e77ef56	0.24212393
49	0xbe27956e	-0.16365597
50	0x3e3ef13b	0.1864671
51	0x3d34aff8	0.04411313
52	0x3c81ccb0	0.015844673
53	0xbe0b560d	-0.13607045
54	0xbe75309d	-0.23944326
55	0xbdfc152e	-0.12308727
56	0x3d825aee	0.06365
57	0xbc7d43cb	-0.015458058
58	0x3e905d2f	0.28196093
59	0x3d9cdca3	0.076592706
60	0x3e8ab9be	0.27094835
61	0xbc9a2371	-0.018815728
62	0xbd5e98b1	-0.054344837
63	0xbd8fbfac	-0.070189804

arith.constant6 f4 [32]
0	0xbbfb8c79	-0.0076766578
1	0xbc1703f5	-0.009217252
2	0xbb94c14d	-0.004539645
3	0xba251fc8	-0.0006298986
4	0x3ab95a3f	0.0014141275
5	0xbb5f9108	-0.0034113545
6	0xbba61546	-0.005068454
7	0xbc26f74f	-0.010190799
8	0xbbbfc92f	-0.0058528404
9	0x3bb34359	0.005470675
10	0xba1ce53c	-0.00059850863
11	0xbc17c76d	-0.009263855
12	0xbc154b1c	-0.009112146
13	0xbc030ca3	-0.007998618
14	0x3a118b5a	0.0005552076
15	0xbbaf2d6d	-0.0053459913
16	0xbaa01174	-0.0012212233
17	0x3a903f84	0.0011005257
18	0xbb5a8a28	-0.0033346508
19	0xbc3bd9d7	-0.011465511
20	0x3a91abe4	0.001111385
21	0xbb8b1f5c	-0.0042456817
22	0xbb72d847	-0.003705518
23	0x3ac97726	0.0015370592
24	0xbc39fb1b	-0.011351372
25	0xbbe1f1e8	-0.0068952926
26	0xbbd71db5	-0.0065648207
27	0x3bb9c5f4	0.00566935
28	0xbb83fd68	-0.004028011
29	0x38cb9ef2	9.7094e-05
30	0xbb050327	-0.0020296068
31	0xbb448c4b	-0.0029990848

tfl.pseudo_qconst i1 [32, 3, 3, 16]
0	0x17	23
1	0xa6	-90
2	0x40	64
3	0xe3	-29
4	0x94	-108
5	0x30	48
6	0x17	23
7	0x99	-103
8	0xf7	-9
9	0x17	23
10	0x12	18
11	0xfc	-4
12	0x3e	62
13	0xe9	-23
14	0x42	66
15	0x85	-123
16	0xbc	-68
17	0x28	40
18	0x59	89
19	0x8b	-117
20	0xb6	-74
21	0x18	24
22	0xba	-70
23	0x85	-123
24	0xf7	-9
25	0x02	2
26	0x0d	13
27	0x57	87
28	0xa1	-95
29	0x0f	15
30	0xf7	-9
31	0xa9	-87
32	0x2e	46
33	0x9f	-97
34	0xa0	-96
35	0x07	7
36	0xdf	-33
37	0x0f	15
38	0xb6	-74
39	0xb8	-72
40	0x2b	43
41	0xcc	-52
42	0xf4	-12
43	0xa6	-90
44	0xf6	-10
45	0xfa	-6
46	0xc8	-56
47	0xde	-34
48	0x94	-108
49	0x59	89
50	0xc4	-60
51	0xf8	-8
52	0xcd	-51
53	0x9d	-99
54	0x55	85
55	0x66	102
56	0x85	-123
57	0x6d	109
58	0xf6	-10
59	0xbb	-69
60	0xdb	-37
61	0x0c	12
62	0x8b	-117
63	0x81	-127
64	0x15	21
65	0x9b	-101
66	0x8b	-117
67	0x00	0
68	0xac	-84
69	0x01	1
70	0x6a	106
71	0xcc	-52
72	0x98	-104
73	0x0b	11
74	0xcf	-49
75	0x24	36
76	0xad	-83
77	0x0b	11
78	0xe9	-23
79	0xbf	-65
80	0x3e	62
81	0x2e	46
82	0xe2	-30
83	0xc5	-59
84	0x3d	61
85	0x3e	62
86	0xa1	-95
87	0xa3	-93
88	0xd8	-40
89	0x28	40
90	0x47	71
91	0xc4	-60
92	0x5f	95
93	0x60	96
94	0xbd	-67
95	0x97	-105
96	0x3e	62
97	0x44	68
98	0x5a	90
99	0x85	-123
100	0xb9	-71
101	0xb2	-78
102	0xbe	-66
103	0x1e	30
104	0x6a	106
105	0x27	39
106	0x68	104
107	0xa1	-95
108	0x08	8
109	0x49	73
110	0x1c	28
111	0x2c	44
112	0x26	38
113	0x32	50
114	0xec	-20
115	0x20	32
116	0x05	5
117	0x34	52
118	0xaa	-86
119	0xfc	-4
120	0xba	-70
121	0x47	71
122	0x68	104
123	0x1a	26
124	0x13	19
125	0x05	5
126	0x65	101
127	0x59	89
128	0xd9	-39
129	0xe7	-25
130	0x50	80
131	0x38	56
132	0x93	-109
133	0x34	52
134	0x4e	78
135	0xb5	-75
136	0xdd	-35
137	0xb3	-77
138	0x32	50
139	0xb4	-76
140	0x0e	14
141	0x54	84
142	0x9f	-97
143	0xe0	-32
144	0x26	38
145	0x08	8
146	0xa3	-93
147	0x47	71
148	0x3d	61
149	0x41	65
150	0xc8	-56
151	0xfd	-3
152	0x6d	109
153	0xfb	-5
154	0x58	88
155	0xed	-19
156	0xb0	-80
157	0x37	55
158	0x05	5
159	0x64	100
160	0xd6	-42
161	0x81	-127
162	0x14	20
163	0xd9	-39
164	0x08	8
165	0x19	25
166	0xbd	-67
167	0xa5	-91
168	0x32	50
169	0x66	102
170	0x7c	124
171	0xdf	-33
172	0xc3	-61
173	0x2a	42
174	0x2e	46
175	0xa1	-95
176	0x10	16
177	0xf6	-10
178	0x3f	63
179	0xea	-22
180	0xf7	-9
181	0x93	-109
182	0x9a	-102
183	0xf2	-14
184	0x3f	63
185	0x46	70
186	0x5b	91
187	0x0b	11
188	0xad	-83
189	0xaf	-81
190	0x2a	42
191	0xbe	-66
192	0x9d	-99
193	0x17	23
194	0xcc	-52
195	0xc0	-64
196	0xda	-38
197	0xee	-18
198	0x12	18
199	0x13	19
200	0xe1	-31
201	0x38	56
202	0x6b	107
203	0xf9	-7
204	0xff	-1
205	0x46	70
206	0xb0	-80
207	0x0c	12
208	0x3b	59
209	0x3e	62
210	0xe1	-31
211	0x03	3
212	0xf5	-11
213	0xa6	-90
214	0x87	-121
215	0x08	8
216	0x31	49
217	0x0f	15
218	0xf4	-12
219	0xf1	-15
220	0xfc	-4
221	0x1d	29
222	0x69	105
223	0xdb	-37
224	0x39	57
225	0xca	-54
226	0x49	73
227	0xca	-54
228	0x32	50
229	0x9e	-98
230	0x2c	44
231	0xd2	-46
232	0x0a	10
233	0x2c	44
234	0x81	-127
235	0xdb	-37
236	0xfa	-6
237	0x6a	106
238	0xbc	-68
239	0x10	16
240	0xd5	-43
241	0xe7	-25
242	0xcd	-51
243	0xd7	-41
244	0x02	2
245	0x02	2
246	0x87	-121
247	0x99	-103
248	0x98	-104
249	0x99	-103
250	0x09	9
251	0x9b	-101
252	0x52	82
253	0xde	-34
254	0x5b	91
255	0x1e	30

tfl.pseudo_qconst1 i1 [64, 2816]
0	0x29	41
1	0xb3	-77
2	0xb0	-80
3	0xbb	-69
4	0xc3	-61
5	0x52	82
6	0x60	96
7	0x27	39
8	0xca	-54
9	0x9e	-98
10	0x3c	60
11	0x45	69
12	0x53	83
13	0x62	98
14	0xeb	-21
15	0x61	97
16	0xcf	-49
17	0xc6	-58
18	0xb6	-74
19	0x0f	15
20	0x38	56
21	0xbe	-66
22	0xca	-54
23	0x69	105
24	0xf8	-8
25	0x58	88
26	0x21	33
27	0xb7	-73
28	0x31	49
29	0x38	56
30	0xb0	-80
31	0xda	-38
32	0xc9	-55
33	0xc9	-55
34	0x1a	26
35	0x3f	63
36	0xaa	-86
37	0x63	99
38	0x17	23
39	0x38	56
40	0x33	51
41	0x46	70
42	0xec	-20
43	0xc8	-56
44	0x63	99
45	0x4b	75
46	0xca	-54
47	0x0f	15
48	0x13	19
49	0xfe	-2
50	0xeb	-21
51	0x37	55
52	0x50	80
53	0x28	40
54	0xde	-34
55	0x37	55
56	0xf3	-13
57	0x48	72
58	0x19	25
59	0x57	87
60	0x23	35
61	0xed	-19
62	0x21	33
63	0x29	41
64	0xf6	-10
65	0x24	36
66	0xf6	-10
67	0x63	99
68	0x3a	58
69	0xc7	-57
70	0x04	4
71	0x3c	60
72	0x09	9
73	0x56	86
74	0x00	0
75	0xdc	-36
76	0xea	-22
77	0x26	38
78	0x68	104
79	0xaa	-86
80	0xe5	-27
81	0x25	37
82	0x00	0
83	0x1c	28
84	0x3f	63
85	0x09	9
86	0xd0	-48
87	0x1c	28
88	0x0f	15
89	0xb8	-72
90	0xdb	-37
91	0xaf	-81
92	0x01	1
93	0xc3	-61
94	0xb4	-76
95	0x40	64
96	0xc9	-55
97	0x4c	76
98	0x27	39
99	0x17	23
100	0xb8	-72
101	0xf9	-7
102	0x16	22
103	0x3a	58
104	0x56	86
105	0x55	85
106	0x4b	75
107	0x62	98
108	0x14	20
109	0x25	37
110	0xad	-83
111	0xcd	-51
112	0xdb	-37
113	0x55	85
114	0xb3	-77
115	0x16	22
116	0x4e	78
117	0x11	17
118	0x53	83
119	0x1b	27
120	0x30	48
121	0xcf	-49
122	0x22	34
123	0x60	96
124	0x0c	12
125	0x65	101
126	0xf0	-16
127	0x37	55
128	0x38	56
129	0xcf	-49
130	0x20	32
131	0xe0	-32
132	0x3e	62
133	0xdb	-37
134	0x02	2
135	0x40	64
136	0x59	89
137	0x11	17
138	0xd6	-42
139	0xe3	-29
140	0x43	67
141	0xc7	-57
142	0x32	50
143	0xef	-17
144	0xeb	-21
145	0x17	23
146	0xe7	-25
147	0x10	16
148	0x41	65
149	0x00	0
150	0x07	7
151	0xe6	-26
152	0xb2	-78
153	0x18	24
154	0xd2	-46
155	0x18	24
156	0xb2	-78
157	0x0c	12
158	0xf6	-10
159	0x45	69
160	0x4a	74
161	0x3d	61
162	0xbd	-67
163	0x56	86
164	0x62	98
165	0xeb	-21
166	0xf7	-9
167	0xb3	-77
168	0xee	-18
169	0xe8	-24
170	0xb3	-77
171	0xa0	-96
172	0x56	86
173	0x3e	62
174	0xb0	-80
175	0x4f	79
176	0x10	16
177	0x0d	13
178	0x12	18
179	0x53	83
180	0xdf	-33
181	0xe4	-28
182	0x9f	-97
183	0x1f	31
184	0xeb	-21
185	0x5a	90
186	0x2e	46
187	0x07	7
188	0x1d	29
189	0xee	-18
190	0x31	49
191	0xfb	-5
192	0x2b	43
193	0x07	7
194	0xeb	-21
195	0x0e	14
196	0xeb	-21
197	0x3d	61
198	0xe2	-30
199	0x21	33
200	0x54	84
201	0xfb	-5
202	0xab	-85
203	0xfd	-3
204	0xc7	-57
205	0xf1	-15
206	0xec	-20
207	0x43	67
208	0x21	33
209	0x9f	-97
210	0xeb	-21
211	0x2f	47
212	0x42	66
213	0xf7	-9
214	0x31	49
215	0x1a	26
216	0xc4	-60
217	0x27	39
218	0x10	16
219	0xba	-70
220	0x43	67
221	0xee	-18
222	0x61	97
223	0x38	56
224	0xfe	-2
225	0xf3	-13
226	0xd2	-46
227	0x39	57
228	0xe4	-28
229	0x2f	47
230	0x52	82
231	0x39	57
232	0x72	114
233	0x4f	79
234	0xc0	-64
235	0xea	-22
236	0xe7	-25
237	0x3d	61
238	0x18	24
239	0xbc	-68
240	0xfd	-3
241	0xf9	-7
242	0xbf	-65
243	0xb8	-72
244	0xfc	-4
245	0xbe	-66
246	0x0a	10
247	0xe8	-24
248	0x35	53
249	0x3c	60
250	0x05	5
251	0x49	73
252	0xae	-82
253	0x54	84
254	0x08	8
255	0xa4	-92
